app/models/classifier.pth (torch, 794681 bytes, 6 tensors)

fc1.weight f4 [256, 768]
00000000: 24ac 6aba 81b8 ef3c 079e abbc 05f9 4abd
00000010: 13e6 fdbc f060 563c 666b 40bc 9747 0bbd
00000020: b414 f13c cc1b c83c 749d c0bc 37cf c83c
00000030: b17d f33b 4498 46bd bae8 863c 26df 17bc
00000040: 5d6d 963c 1dac b0bc 6242 993c 5077 aabc
00000050: 8d37 e53c 4722 9abc f63b 0f3b 1418 5e3d
00000060: 1944 6ebc d431 703c 65db 053d 34dd 2bbc
00000070: 799c 1f3d 8f2d 1d3c 2126 ac3c 4d13 b33c
00000080: 49b5 acbc b8c7 843c e97e 28bc ca17 29bb
00000090: a945 86bc 12db 4fbc 00dc d63c 1fca c73b
000000a0: ce99 13bb d9e6 213d c648 e43c b54e 3dbd
000000b0: 3dd1 9dbc cb91 24bb bcd7 c2bc b463 ba3a
000000c0: 2350 413c 78cc fa3c f4ea 483c 8631 69bc
000000d0: 0fd1 0e3d d9cc 903c fbbc b83c b720 ee3b
000000e0: 0701 903c 53e7 ae3b 4a22 e33c af1e 093d
000000f0: d2f6 3bbd 00e1 903c 74ec be3c 460a 2f3b
00000100: 5915 2a3d f535 183d 1122 33bd f2d8 823b
00000110: 3960 37bd ff0b 963c 649d 973c 50f5 133c
00000120: 2fe2 0e3c 1f7e 4fbc 0408 fbbc 2961 503c
00000130: a93d a93c 1ff7 233d 67e0 e73c 508e fc3b
00000140: dcd5 e63c c44d 65bb 1c33 313d 4e20 d33b
00000150: 6677 d43c a42f d43b a2ef f5bc ff34 163c
00000160: 5f73 2b3d f1a1 553d 8d1d 4f3c 6868 263c
00000170: 73cf 12bc f548 193d c106 d03c bf0c 81bd
00000180: 3603 c03c 04cf cdbc 7fbb 243d c47b 363d
00000190: 0bd0 11bd fc84 3f3c 982b aabc ae01 d3bc
000001a0: 7a1d e3ba eb2e a33c 87ca e63c 10e3 39bd
000001b0: 2eab 783b 800d 6bbc 7d64 5abd 2686 e33c
000001c0: e15c 9dbc 198b 44bd b18c c7bb 4498 bebc
000001d0: 8357 ffbb 02a0 95bb ee49 91bc 5e69 213d
000001e0: 8493 30bd 181a 293c 6856 493d e135 923c
000001f0: 8fb0 6cbc b84c 953b 9e4a e33c 5581 c0bc
00000200: bd77 41bc a34d 06bd 581e cd3b b61f 813c
00000210: 6d15 28bd 8b17 dfbb 2f95 c3ba 7413 523c
00000220: fc23 5dbd c407 20bd df8c cc3c 7a3a 023d
00000230: ca58 89bb b6f6 b93b cc6e 79bc 6328 6ebc
00000240: b582 ffbb c960 00bd 3cec ac3c f76d 643d
00000250: e753 19bb dc14 c53b 2ed0 83bd d5bd 023d
00000260: 7587 12bd 6f92 d33c 1c5c 0c3b 8728 18bc
00000270: 2af5 a2bc 978d f8bc eea7 923c 373b e53c
00000280: d5d1 363d aa8f 80bb f8c1 17bb 9e9d 863c
00000290: b3fd 95bc 1ae8 52bd 6910 f73c 9dd1 f13c
000002a0: bc11 85ba 8325 af3c 48b0 a93c 27f0 90bc
000002b0: 47f0 07bd 80d7 fdbb d2d6 613c 6e4b bdbc
000002c0: ae1c 493d a6bb fc39 d1f2 ad3c de12 dbbc
000002d0: 93bd 5ebd 4365 b73c 4e66 2e3c a26b 80bc
000002e0: 5765 58bc c97c 543d eace 253c 8e73 38bc
000002f0: 0458 1abb 5900 783c 26b7 143d 2d47 5e3d
00000300: d5d6 923c 1175 163c 3c46 eebc 3c42 8d3c
00000310: e534 9bbc 15e2 793c 2b50 273c 556c 483c
00000320: fc1f 9fbb e70c 2ebd 9e1f a0bc 02c4 bc3b
00000330: 70b5 0c3d afce b7bc 5464 773a 8f1e a03c
00000340: 7366 f33c ec32 1d3d 1ec3 003d c5f0 993c
00000350: af7d c3bc 0b61 22bb b6e7 933c 660d 293a
00000360: 957d 903c 9ea8 733b 5a69 b53c aa55 ee3c
00000370: 8f09 253c 9a2b 58bc 31bb e1bc 005f 093d
00000380: f586 36bd b290 46bd 2f9d 2d3d 3af9 24bc
00000390: 4f7b 8fbc 1148 13bd a10b 93bc b552 0f3d
000003a0: a456 73bc c7f3 db3c a808 933c bd42 d1bc
000003b0: 2f2f b7bc 5b72 0abd 8102 2dbd 0c5b 943c
000003c0: 0520 6b3c 7b11 493c 69bf fd3c 8581 3cbd
000003d0: b5e6 e03b 0e3d 02bd 390d 7cbc c8de 333d
000003e0: 9deb 593b 1aed edbb 9001 d43c 1ea6 70bc
000003f0: de8a 0d3d c120 8c3c 1396 19bd 2d1c ba3c
-0.00089520426 0.029262783 -0.020949377 -0.04955389 -0.030993497 0.013084635 -0.011744356 -0.03400382
0.029428817 0.024427317 -0.02351258 0.02451287 0.007430755 -0.048485056 0.016468395 -0.009269511
0.018362695 -0.021566445 0.018708412 -0.020808846 0.02798059 -0.018815173 0.0021855808 0.05422218
-0.014542603 0.014660317 0.032679934 -0.010489751 0.038967583 0.009593382 0.021014275 0.02185979
-0.021082537 0.016208515 -0.010284164 -0.0025801533 -0.016390638 -0.012686508 0.026227951 0.0060970928
-0.0022522095 0.039526794 0.027866732 -0.04621764 -0.019264812 -0.0025111313 -0.02378451 0.0014220388
0.011798891 0.030615076 0.012263048 -0.014232999 0.034867343 0.017675804 0.02255105 0.0072670835
0.017578615 0.0053376346 0.027726311 0.033476528 -0.045889683 0.017685413 0.023306109 0.0026709004
0.041524265 0.037160832 -0.04373366 0.003993147 -0.0447695 0.018316267 0.018507667 0.009030655
0.008720919 -0.012664347 -0.03064347 0.012718477 0.020659285 0.040030595 0.028305246 0.0077073947
0.028178148 -0.003498898 0.043261632 0.00644306 0.02593584 0.006475406 -0.030021492 0.009167909
0.041858073 0.052156392 0.012641323 0.010156728 -0.008960593 0.037423093 0.025393846 -0.06301259
0.023439031 -0.025123127 0.040217873 0.044551626 -0.035598796 0.011689421 -0.02077274 -0.025757637
-0.001732751 0.019919833 0.028172744 -0.04538256 0.0037943828 -0.01434648 -0.05331849 0.027773928
-0.019209327 -0.047984216 -0.00608977 -0.023265965 -0.0077924146 -0.0045661936 -0.017735448 0.039407127
-0.043109432 0.010321163 0.04915467 0.017847957 -0.014446392 0.0045562647 0.027745541 -0.02349917
-0.011808333 -0.032788884 0.006259721 0.015762191 -0.04103606 -0.0068082265 -0.001492178 0.012822021
-0.053989395 -0.039069906 0.024969516 0.03179405 -0.0041914927 0.005675162 -0.01522417 -0.014535996
-0.007797564 -0.0313423 0.02110874 0.055768933 -0.0023395957 0.0060144495 -0.064361915 0.03191932
-0.035773713 0.02582666 0.0021417206 -0.009287006 -0.019892294 -0.030340953 0.01790234 0.027982337
0.044633705 -0.003923376 -0.0023156386 0.01643258 -0.01830945 -0.05149088 0.030159192 0.029518897
-0.001015238 0.021380192 0.02071394 -0.017692639 -0.03318813 -0.007746637 0.013784127 -0.023107257
0.049099617 0.00048204995 0.021233948 -0.026742395 -0.05438001 0.022387153 0.0106445085 -0.015676323
-0.013207755 0.051876817 0.010120133 -0.011258019 -0.0023550997 0.015136802 0.036307476 0.054267097
0.017924706 0.009183184 -0.029086225 0.017243497 -0.01894612 0.015251656 0.010211985 0.01223286
-0.0048561078 -0.042492773 -0.019546326 0.0057606706 0.03435272 -0.022437422 0.00094372523 0.019545821
0.029711938 0.03837864 0.03143608 0.018791566 -0.023863642 -0.002477708 0.018054824 0.0006448835
0.017638007 0.003717936 0.022144962 0.029093582 0.01007308 -0.013193989 -0.02755508 0.033537865
-0.0445623 -0.048477836 0.04238623 -0.010069186 -0.017514853 -0.0359574 -0.017949881 0.034990985
-0.0148522 0.02684964 0.017948464 -0.025544519 -0.022361366 -0.033800464 -0.042238716 0.01810982
0.014350896 0.012272234 0.03097506 -0.046021957 0.00686344 -0.031796508 -0.015384012 0.043913633
0.0033252009 -0.0072609307 0.025879651 -0.014688043 0.034556262 0.017105462 -0.037496638 0.022718513

fc1.bias f4 [256]
00000000: 7ac7 f33a d358 b03b 4c36 453c e614 c3bc
00000010: 93b1 d4bc 76ab df3a c188 64bb 04cd 3c3b
00000020: d9d7 2ebc 5221 053d 6a46 1ebd 9f59 2d3d
00000030: 68f4 a63b 40ce 09bd f2e4 fcbc cf51 e1bc
00000040: aff4 fe3c 98f2 a53c 9778 f83c c6df a83c
00000050: 81ee 28bc 2ac8 87bc 4f95 b43c f723 b4bb
00000060: 09f7 0c3d 1bd8 9fba 716f 1bbc b496 12bd
00000070: d65d 23bb a27f 28bc ac46 8f3b 0764 91bc
00000080: c09d 6bbb 93a7 1e3c 4d07 e0bc 3762 653c
00000090: 5938 adbb 921a 20bd 57e2 8fbc e28f db3c
000000a0: ffbc baba fc59 313c a574 09bd 5fb6 20bc
000000b0: 7515 fabb 3a0e 0a3b 6fa4 0cbd effd 5c3b
000000c0: 3cf4 dcbc 8ea1 c63c 9b35 163c f675 8dbc
000000d0: f0fd ce3c 8e0b 9e3c 11ed c83c 5920 66bc
000000e0: 35ef 9a3c 3a73 32bc 6634 b13c ef2e 993c
000000f0: 41f7 5fbb 679e 00bc 4d0b bf3c 6189 f3bc
00000100: 9c9e 54bd 35ec e73c dd5a 94bc b790 cbbc
00000110: 724e b73b b461 3abd 5748 54bc 7135 debb
00000120: a411 9fbc d91e 93bb 4cc2 45bb 4d0f 17bc
00000130: 038e 113d f32c eabb 4fcd c23b 3fe2 4e3c
00000140: 10ca 2dbc b56f 053d c242 9c3c 6784 863c
00000150: cee0 f5bc 6eb6 44bc 0a26 17bd 7884 413c
00000160: ae96 933c ff47 08bd 305d 81bc c9ab 98bc
00000170: 3beb e23c 6fe8 f93c ebd1 11bd 50ea e53c
00000180: 9ad4 253c 95df 813b 3468 8bbc 577d 283c
00000190: 863e dc3b 1b10 62bc e413 853c 035c 203c
000001a0: 6bbf 52bc fccb 1cbd f89d cb3c 9393 68ba
000001b0: 2f0e 743c e2f4 133b 4d30 eebc 3811 dbbc
000001c0: a382 2abd e82a dbbc fc51 89bc 5f56 25bd
000001d0: 6c02 983c 54f4 3c3c 6648 2b3c 6b84 9c3c
000001e0: d47d a8bc 8a66 81bc c699 a7bc 28ad 023d
000001f0: e68c d6bc 0f40 e0bc 5626 c13c e2e2 adbc
00000200: 7d43 92bc bad7 cfbc fa23 173d 1fad e3bc
00000210: a6f5 40bd 5c14 81bb 40b9 deb9 5b1c 9abc
00000220: 57dc a93c dfc2 ff3c 8708 aebc 428b c63c
00000230: 6612 143c 5f06 643c f95f 69bc 5db1 d43c
00000240: 4c46 b73c 19ed 73ba 4247 0bbd fef3 e7bc
00000250: 87e9 1cbd 485a c6bb 6270 f6bc efd9 a9bb
00000260: 4ad4 ecbc 76e6 063d 1ce1 623c 630f 09bc
00000270: 812e 0bba 794a c53c 21e9 fcbc 7200 07bc
00000280: a9ed 91bc d8d6 033d 8899 2e3c 84bb ea3c
00000290: 9ac4 f23c de6f 673a 919d 88bc cd64 e43c
000002a0: 3a36 dabc df9e 1f3d f4fd a0bb b620 ae3b
000002b0: f53d 1dbd 4ce9 b5bc e5e2 1bbd 1b03 2abd
000002c0: 8f5d e53b 5981 2ebd af18 ebbc c0ad 06bd
000002d0: e21a a5bc 4b29 7fbc 7790 4db9 de7f 0cbd
000002e0: 7538 febb 1d2d 1cbd fc53 593c dbc6 813c
000002f0: 71b7 61bc 7014 fc3b cba8 adbb 26af bb3c
00000300: a67e f6bb c58d 1dbc 569d 37bb 12bc cd3c
00000310: 5172 e3bc 09cb c2bc a383 67bc b5af 503c
00000320: 0081 2d3b 64c9 8fbc dd6f cbbc 5515 153c
00000330: 84a2 c2bb a755 d0bc 82f4 28bd 799b 473c
00000340: 8790 fe3c 8197 e3bc f813 3dbc 44d7 c1bb
00000350: a08d 193d e2bc ecbc a1bb cebc 7e2f 40bd
00000360: c9ec be3c 8539 223c 9098 4ebc cbbb 6fbc
00000370: 8bf1 a5bc 3bab 393c 7438 a83b 8890 58bc
00000380: 4bb5 983c 580a 273b ed86 3ebd 71b7 57bc
00000390: e3ec c7bb 4779 d3bc cdb7 1bbd 1abc 0abb
000003a0: ad83 9abc 50eb d9bc f057 07bc 72d0 c93b
000003b0: 4837 65bc 2d26 8cbc 0943 193b 0877 2fbc
000003c0: b5d8 c7bc d690 753c 15d7 06bd 77f7 05bb
000003d0: 4fb6 8c3c e591 533c c4c8 78bb e30a 943c
000003e0: 5c10 1d3c afc0 2e3c fb6a c3bc bad1 6b3c
000003f0: 3397 693c 1400 a33c 8c04 debc 0376 8f3b
0.0018598877 0.0053816824 0.012036871 -0.023813676 -0.02596358 0.0017064649 -0.003487155 0.0028808722
-0.010671579 0.03250248 -0.03864137 0.042321797 0.0050950535 -0.03364396 -0.030870888 -0.02750483
0.031122534 0.02025728 0.03033094 0.020614516 -0.01031077 -0.016574938 0.022043852 -0.0054974514
0.03441528 -0.0012195142 -0.009487019 -0.035788253 -0.0024927757 -0.010284336 0.0043724384 -0.017747892
-0.003595218 0.0096835075 -0.027347231 0.014000467 -0.005286258 -0.03908784 -0.017563982 0.026802007
-0.0014246999 0.010824677 -0.033558507 -0.009809106 -0.0076319524 0.0021065609 -0.034336504 0.0033720692
-0.026971929 0.024246957 0.009168054 -0.017268162 0.025267571 0.01929262 0.024527105 -0.014045798
0.01891289 -0.01089173 0.02163143 0.018699137 -0.0034174474 -0.007850266 0.023320818 -0.029728593
-0.051909074 0.028310874 -0.018109733 -0.024849279 0.005594068 -0.045503333 -0.0129567 -0.006781273
-0.019417591 -0.0044897613 -0.0030175624 -0.009219957 0.035535824 -0.0071464716 0.005944885 0.012627183
-0.0106072575 0.032577235 0.019074801 0.016420556 -0.030014422 -0.012006385 -0.03690151 0.011811368
0.018016186 -0.033271786 -0.015791506 -0.018636601 0.027700057 0.03050634 -0.035600584 0.02806583
0.010121489 0.0039634206 -0.017017461 0.01028379 0.0067213206 -0.013797785 0.016244836 0.009787562
-0.01286302 -0.038280472 0.024855599 -0.0008872088 0.01489596 0.0022576381 -0.029075766 -0.026741609
-0.04162849 -0.026753858 -0.016762726 -0.040365573 0.018555842 0.011532862 0.010454273 0.01910611
-0.020567812 -0.015795965 -0.020459067 0.031903416 -0.026190232 -0.027374296 0.02357785 -0.02122635
-0.017854447 -0.025371421 0.036899544 -0.027792512 -0.04710927 -0.0039391946 -0.00042481162 -0.018812349
0.020734949 0.031220851 -0.0212443 0.024236325 0.00903759 0.013917535 -0.014244073 0.02596348
0.022372387 -0.00093050447 -0.034003504 -0.028314587 -0.038308647 -0.006053243 -0.030082885 -0.0051834504
-0.028909821 0.03293463 0.013847616 -0.008365485 -0.0005309359 0.024083363 -0.030872883 -0.008239852
-0.01781352 0.032187313 0.010656722 0.028653868 0.029634763 0.000882862 -0.016676696 0.027880097
-0.026637185 0.03896987 -0.004913086 0.005313958 -0.038389165 -0.022205971 -0.03805818 -0.041506868
0.0069996784 -0.042603824 -0.028698293 -0.032880545 -0.02015442 -0.01557381 -0.00019604141 -0.03430163
-0.007758195 -0.03812896 0.013264652 0.015841892 -0.013776646 0.007692866 -0.0052996627 0.022910666
-0.007522422 -0.00961632 -0.0028017364 0.025114093 -0.027764471 -0.023778455 -0.014130506 0.012737204
0.0026474595 -0.017552085 -0.024833614 0.009099324 -0.0059397835 -0.025431467 -0.041248806 0.012183064
0.031074775 -0.027782204 -0.011540405 -0.0059155542 0.03748858 -0.02889866 -0.025235953 -0.046920292
0.023306267 0.009901409 -0.012609616 -0.014632176 -0.020256778 0.011332328 0.005133683 -0.013218053
0.018641135 0.0025488343 -0.046515394 -0.013166294 -0.006101237 -0.025814665 -0.038017083 -0.0021169246
-0.018861616 -0.026601464 -0.008260712 0.006158882 -0.013990231 -0.017108047 0.0023385903 -0.010709532
-0.024395326 0.014988145 -0.032919962 -0.002044169 0.017176775 0.012913202 -0.0037961463 0.018071597
0.00958642 0.010666057 -0.023854723 0.014393264 0.01425724 0.019897498 -0.027101777 0.0043780818

fc2.weight f4 [2, 256]
00000000: bfae 253b fdc0 253d 6c6d c43d c218 443d
00000010: c35f 4d3d 4d52 3abc e93c 81b9 f78f 9ebc
00000020: ea94 233d e6f6 ffbb 4753 e4bc d56a 31bd
00000030: d8a8 823d ce32 1bbd 5cc3 823d 8ec5 803d
00000040: 8a29 ea3c a645 e83c 3d8c ba3d c7ff 23bd
00000050: 3400 4c3c eb38 3bbd b927 733d 24b8 3a3a
00000060: 79f0 943c 1f88 073d e29a d8bc cc2b 68bd
00000070: a2f2 44bc 2644 feba 0ef6 103c e5aa 61bc
00000080: 4999 5e3b e1c5 773d 01a6 a7bb 27e5 21bd
00000090: 6690 7d3d 661f 29bd d324 39bd 5c63 0fbc
000000a0: 8f44 313d 6a0d db3c 4b42 f03c 7d96 ca3c
000000b0: b59a b5bc d0e7 9b3b 616a 983c 457f 053d
000000c0: 5042 233d 5e54 46bd 6b84 86ba 08ef 243a
000000d0: e9b0 ac3c 77d0 893d b7d4 46bd 3f9c 3e3d
000000e0: a538 a03a ebac 593b 9589 34b8 c740 53bd
000000f0: 4f8b d43c 4168 243c 2298 c13d cf9e 67bc
00000100: 268f 2cbd 8108 183d cd9c e33c 196e 583d
00000110: a49b 073a 37ab 00bb 0580 553d d873 273d
00000120: 9da3 0dbd cf50 233d 75b7 353d 8f76 41bd
00000130: e96b c23c 740a 68bc 2999 22bd b138 0a3d
00000140: fb7e db3c 7554 4f3d 6385 93bc 4ab7 053d
00000150: b85f 3d3d 6e55 d93c 97b5 823c 6864 873d
00000160: 0c37 293d a79d 673d cf0a 003d 531b cf3c
00000170: a5f2 163d dcc3 c43d b1f3 0bbc 9d1a 673d
00000180: 64fd f2bc dda7 003d 67e3 00bd 06e1 7c3c
00000190: 8515 92bd 9e27 4d3d 27b1 f03c 9512 563d
000001a0: fce4 04bd 582c 123d 8b10 cd3c 05d3 c2bc
000001b0: 5555 313d 50c8 3c3d d10f be3d 2397 7c3b
000001c0: e53c 0a3d ae00 273c 8bfb 39bd 6918 2c3d
000001d0: afdb 363d 304a ce3d 060b 433d 29c8 953c
000001e0: d47a b7bc 256a 193d 1878 693d 49ea 82bd
000001f0: a22c 02bd 5aaa 6b3d de47 ee3b bf62 c3bc
00000200: d74d b13b bb42 1fbc 75d0 88bd 35d3 bebc
00000210: d24d 3a3b 2a51 cdbc 2aed 523d 30ff 26bd
00000220: fb21 05bd 2a2c 093d 7b0e 823d 1e3f d53c
00000230: f20d 9b3c 75a7 723d e7b9 4b3d a2d9 6b3c
00000240: 4298 053d 0aa9 183e f071 b2bc 2e92 143d
00000250: d0e9 bf3c d7aa 82bd 1950 1d3d a3cc c6bc
00000260: 9458 473a e2c4 9b3d 56b9 3c3d fede 1d3d
00000270: 8564 7abd 3651 62bd d3ba 2a3d 382f 7a3d
00000280: 338d 40bd 1b88 2b3d 362d 913d 2337 cfbc
00000290: fa0c 04bb fb1c 13bd a518 043d 557a a03c
000002a0: 3fc1 e0bb 6469 1cbd 4688 733d 2995 8fbb
000002b0: 1255 8abc 39bb 16bd d3eb fdbc 1e22 97bc
000002c0: ce6b 243d f399 4ebd 4ae4 0b3d 7c11 8c3c
000002d0: ce08 9fbc 0c95 463d d05a 63bc 1b0a 81bc
000002e0: bd1a 693d 9926 22bd b86c 783d faa4 883d
000002f0: 9136 843d 1d43 54bd d2d8 8b3c d3d0 17bd
00000300: 9167 a8bc 6abf 84bd 0a54 623b 8bb3 d8bc
00000310: 7948 043d 1a99 01bd dc50 d0bc a713 e13c
00000320: 9341 853c e1e5 503d 1840 6d3d 9707 48bb
00000330: 23b7 0cbd 05b8 44bd 0cba 16bd 9f1c abbc
00000340: 35c2 1d3c fe9a b23c 3b28 5e3d 0fe2 a83b
00000350: 5742 573d c433 18bd f29f 623c 34bd 893c
00000360: 8d87 40bd ff37 f03c 6c6c 493d 1ab9 3abd
00000370: 0d8e 7fbd f551 85bb 91e8 703d bd70 19bd
00000380: 620d 083c 35f6 5cbc d237 313d bda3 883d
00000390: ec94 183d f855 2bbd ad37 133b 281f 593d
000003a0: 36a9 053d 3eed 26bd 40b1 23bd ffba 7b3d
000003b0: e405 003d ea95 7cbc 427c 5dbd e14e 40bd
000003c0: 23fd 583d ff39 563d 7457 4c3d 7b86 653b
000003d0: 0b47 d0bb 3416 8c3c 0858 1abd 43e3 e43c
000003e0: 49c7 123d 7e68 683d 2437 00bd b455 6cbc
000003f0: f080 ae3d 578c 953d a9a6 a9bc 049c 32bd
0.0025281159 0.04046725 0.09591183 0.047875173 0.050140154 -0.011372161 -0.0002465018 -0.019355757
0.039936937 -0.007811415 -0.027871741 -0.043314774 0.06379861 -0.037890248 0.06384918 0.062876806
0.02858426 0.028353523 0.091087796 -0.04003885 0.01245122 -0.045708578 0.059364054 0.0007122776
0.018181073 0.0330888 -0.026441041 -0.056682393 -0.012020739 -0.0019398972 0.0088477265 -0.013773655
0.0033965877 0.060491446 -0.0051162248 -0.039525177 0.061905287 -0.04128971 -0.045201134 -0.008751716
0.043278273 0.026739795 0.029328486 0.024729962 -0.022168497 0.004757859 0.018605413 0.032592077
0.039858162 -0.048420303 -0.0010262852 0.0006291722 0.021080451 0.06729215 -0.048542704 0.046535727
0.0012223913 0.003321464 -4.3043477e-05 -0.05157545 0.025945334 0.010034622 0.09452845 -0.014136984
-0.042128704 0.037117485 0.02778473 0.052839372 0.00051730336 -0.0019633302 0.052124042 0.04088196
-0.034579862 0.039871987 0.04436441 -0.047232207 0.023733096 -0.0141626485 -0.039696846 0.03374547
0.026793947 0.050617654 -0.01800794 0.0326455 0.046233863 0.026529994 0.01595573 0.06610948
0.041312262 0.056546833 0.031260308 0.025281584 0.036852498 0.0960767 -0.008541987 0.056421865
-0.029661842 0.031410087 -0.031466868 0.015434509 -0.07133011 0.05008661 0.029381348 0.052263815
-0.03244494 0.03568682 0.025032302 -0.023782263 0.04329427 0.04608947 0.092803605 0.0038542233
0.03374948 0.010193033 -0.045405906 0.042015467 0.0446431 0.10072744 0.047617935 0.01828392
-0.022397436 0.037454743 0.056999296 -0.063923426 -0.031780846 0.057535507 0.007271751 -0.023850797
0.0054108906 -0.0097205 -0.06680385 -0.02329407 0.0028427732 -0.025063116 0.05149571 -0.04077071
-0.03250311 0.033489384 0.06350418 0.026031073 0.018927548 0.05924173 0.049737837 0.014395149
0.032615907 0.14908233 -0.021782845 0.03627222 0.02342692 -0.06380241 0.038406465 -0.0242675
0.0007604447 0.07605912 0.046075188 0.03854274 -0.06113102 -0.05525323 0.041682076 0.061080188
-0.047009658 0.041877847 0.070887014 -0.025294846 -0.0020149336 -0.03591631 0.032250065 0.019589582
-0.006858974 -0.038186446 0.059456132 -0.004381795 -0.016886268 -0.036799643 -0.030996239 -0.018448886
0.040141873 -0.050439786 0.03415326 0.017098181 -0.019413378 0.048481986 -0.013876632 -0.015751889
0.056910265 -0.03958759 0.060650557 0.06672092 0.0645572 -0.051821817 0.017071161 -0.037064385
-0.020557197 -0.06481822 0.0034534954 -0.0264528 0.032295678 -0.03164015 -0.025429182 0.027475191
0.01626662 0.05100048 0.057922453 -0.0030522102 -0.03435434 -0.048027057 -0.036798522 -0.020887671
0.009628822 0.021802422 0.054237586 0.0051539014 0.0525535 -0.037158743 0.013832079 0.016813852
-0.04700427 0.029323576 0.049175665 -0.045586683 -0.06239133 -0.004068608 0.058815543 -0.03746103
0.008303972 -0.013486435 0.043266125 0.066718556 0.037251398 -0.041830033 0.0022463605 0.05300823
0.032632075 -0.040753596 -0.03996396 0.06145763 0.031255618 -0.015416602 -0.05407358 -0.046950225
0.052975785 0.052301403 0.04988809 0.0035022784 -0.006356125 0.017100431 -0.03768161 0.027940398
0.035834584 0.056740277 -0.031302586 -0.01442473 0.085206866 0.07302158 -0.020709353 -0.04360582

fc2.bias f4 [2]
00000000: f792 4c3d 928b 37bd
0.049944844 -0.04481084

fc3.weight f4 [2, 256]
00000000: 71c0 63bd 9f8c c43c d8c6 8dbb 5aec e2bb
00000010: 3181 46bd 0dce f2bc b531 b0bd bc86 ac3b
00000020: 56b4 4fbd 53ad 14bd bf22 ce3c f6f0 043d
00000030: 9aa0 8bbd e15e 1cbc 145d 5a3c 03d2 3bbd
00000040: 0cc4 b33c 7c22 82bd 61d3 443c 5e4e 843d
00000050: ec73 58bd b5df ef3c d332 9cbd f828 243d
00000060: d0af 893b a3a5 073d 4f55 12bd 23b5 afbc
00000070: 8031 8fbd 9dbe de3b b212 65bd 5f75 23bd
00000080: 8184 32bd fe5a 41bd 2468 8d3c 935c fa3c
00000090: e85a 21bd df5c 11ba 604b 913c edd9 45bd
000000a0: 1f02 7fbd c0f3 05bd 2a9a 0ebd 7bb2 10bd
000000b0: d216 1ebd d2c0 263d a959 fd39 6c41 05bc
000000c0: 9cdd 91bb ad0a 63bd d0cf 313d 4cb9 d23c
000000d0: 50ef 883c 3ecf b53c 97b5 80bc b589 7e3d
000000e0: 71dd 9e3c 6e3f 193d eb1b 713c e137 f2bc
000000f0: 92fb a2bc 3fd1 193c 7066 d1bd da87 553d
00000100: 6c55 40bd c409 6b3c 6a13 04bd 0ea0 623d
00000110: d45d 50bc d544 79bd 57cc 733d 12ba 483d
00000120: d706 b2bc ec4b d63c 1ba1 a6bc 6e41 3fbd
00000130: 3488 42bd 9ab1 ae3b a9f3 b2bc 7d54 243d
00000140: 770d 30bd 8dd4 1fbd bc0a 0e3d 9907 a0bc
00000150: 4b5e 58bc 1739 a7bd 9587 26bd 01bf 543d
00000160: 8d50 f5bc 4c01 6bbd 4d32 243c 925d e73b
00000170: 7553 b23c da03 23bd 1b48 5ebd fc7c 21bd
00000180: 5e89 9ebd 54bb 203d f4d4 f3bb 60df 55bd
00000190: b8be 943d b9cf 9bbd e895 6ebd b1d6 5bbd
000001a0: e2f3 5dbd cbc4 9fbd 005b d3bb c09a efbc
000001b0: b0f5 513c 980c fb3c 20da 5bbc 0f3f 4cbd
000001c0: 8b2d 22bd 2d0b c9bc 321f 8bba 7538 953c
000001d0: 6217 a33a 67f0 d0bd 40c8 093d 2d8c 1a3d
000001e0: 7a59 5a3d 3c04 fdbb 99a5 87bd 9af1 973c
000001f0: 4e86 04bd 2c3d 56bd 03ef 16bd 042d 2c3c
00000200: bc64 14bc 064b 3ebd 995f 873d 61bc 253d
00000210: adff 9e3c 95c8 85bd 9906 c7bc 4d62 fcbc
00000220: 090a b13c 3410 d6bd 3d4e 66bd 8646 d9ba
00000230: 4d4b 2dbd 0260 9e3c 63ee 263d 6f09 d4bc
00000240: 8b9d aa3c 88d5 b7bb af47 7abd 7f1f 453d
00000250: 2232 73bc ffa6 7ebd b3bb 2d3a 402e 60bd
00000260: b3d5 2a3c e580 853c 6375 bfbd cf28 54bd
00000270: 15dd c4bb 4f32 0e3d f6e1 2f3d a888 b93c
00000280: e445 473b 36c2 1dbd 029c 3dbd 7696 90bd
00000290: 9263 b2bd a448 bbbc cd53 533d edd3 d63c
000002a0: 811d 97bd 5f56 51bd 9db5 63bd 7a10 bdbd
000002b0: dd78 9f3c 33c3 aebc 8611 86bd 5c98 203c
000002c0: 70b5 d13b 0972 3a3d 854d 1b3c abc4 1d3d
000002d0: 4085 be3b a469 37bc be55 fd3c 9f27 b6bc
000002e0: 292b 81bd b211 6cbc feb6 3e3c 75c5 203d
000002f0: 5556 0bbd ec0e c939 0973 0d3d d801 aabc
00000300: dd98 ad3c 68cd ad3c 880c 983c b2d4 59bd
00000310: b804 1dbd defe c8bc 2c22 fb3c ad5f 15bd
00000320: 3a0b cf3c f861 f5bc c4ce 7fbd bd3b 3a3d
00000330: 3f2f 0bbd 97e6 e1bc f168 05bc 58f1 99bc
00000340: 7984 b0bd 5de8 88bd 4533 85bd c7ff 2f3c
00000350: 6336 56bd abc7 39bd 1440 0fbb 8b82 c13c
00000360: 2614 963d e90d 9abc 65b4 d0bc 980d 1c3c
00000370: 8c2a 303d 7f02 9cbc ad3a 90bd ed56 69bd
00000380: 23f8 f7bb 43be 92bc 0549 2e3d 491c 90bd
00000390: a165 2e3d 25d7 58bd 4406 10bd 406a 923c
000003a0: 9bdb f83c 66fa 883c e3e6 64bd 9863 c6bc
000003b0: d967 77bd a54c 6ebd d9d3 fc3c 129e b63c
000003c0: c088 653a e03b 79bd ada7 2bbc 6cc1 1fbd
000003d0: f835 633d 6ce9 763c 12a1 f83c cc57 42bd
000003e0: 91e6 bebc 5b84 3d3d d307 a93c c01a 8ebb
000003f0: 29bb a3bd 771b 9dbd 46cd 3e3d 74d7 65bd
-0.05560345 0.023992835 -0.0043266825 -0.006925148 -0.04846305 -0.029639268 -0.08603231 0.005265085
-0.05070909 -0.036298107 0.025163053 0.03245636 -0.06817742 -0.009544105 0.013327856 -0.04585458
0.021944068 -0.063542336 0.012013287 0.0646026 -0.052844927 0.029281477 -0.076268815 0.040078133
0.0042018667 0.033116948 -0.035725888 -0.021448677 -0.06991863 0.006797625 -0.055926032 -0.039906856
-0.043583397 -0.047205918 0.017261572 0.030561721 -0.039393336 -0.000554515 0.017736137 -0.048303533
-0.062257882 -0.03270316 -0.03481499 -0.035326462 -0.038595982 0.04071123 0.00048322722 -0.008133274
-0.0044514667 -0.055430103 0.043411076 0.025723122 0.016715676 0.022193547 -0.015711589 0.062143046
0.0193927 0.037414007 0.014716129 -0.02956766 -0.019895349 0.009388267 -0.102246165 0.05213151
-0.046956465 0.01434559 -0.032245077 0.05532842 -0.012717683 -0.06085666 0.059521046 0.049005575
-0.021731777 0.02615925 -0.020340493 -0.046693258 -0.047493175 0.0053312303 -0.021844702 0.040119637
-0.04298159 -0.039021064 0.034678206 -0.019534873 -0.013206075 -0.08165186 -0.040656645 0.051939968
-0.029945636 -0.057374284 0.010021758 0.007060715 0.021768311 -0.039798595 -0.054267984 -0.039425835
-0.077410445 0.03924115 -0.0074411575 -0.05221498 0.07262939 -0.07607979 -0.05824843 -0.053671543
-0.054187663 -0.07801207 -0.006450057 -0.029248595 0.012814924 0.030645654 -0.013418704 -0.049864825
-0.039594214 -0.024541462 -0.0010614155 0.018215397 0.0012442882 -0.10202103 0.03363824 0.03773134
0.053307988 -0.007721452 -0.06623382 0.018547822 -0.032354645 -0.05230443 -0.036849033 0.010508779
-0.00905722 -0.046458267 0.06610031 0.040462855 0.019409025 -0.065323986 -0.024295138 -0.030808592
0.02161123 -0.10452309 -0.056226958 -0.0016576804 -0.04230814 0.01933289 0.040754687 -0.025883405
0.020827075 -0.0056101717 -0.06110352 0.04812574 -0.014843496 -0.06217098 0.00066273956 -0.054731607
0.010426926 0.016296813 -0.093485616 -0.05179673 -0.0060078003 0.034715947 0.042940103 0.02264817
0.0030406648 -0.038515292 -0.04629136 -0.07059948 -0.08710398 -0.022861786 0.05159359 0.026224101
-0.07378674 -0.05110776 -0.05559312 -0.09231658 0.019466812 -0.021333313 -0.06546311 0.00980195
0.006399803 0.04551891 0.009478931 0.038517635 0.0058142245 -0.01119462 0.030924674 -0.02223569
-0.0630706 -0.014408516 0.011640308 0.03925081 -0.03401788 0.00038348825 0.034533534 -0.020752832
0.021191055 0.02121611 0.018560663 -0.053181358 -0.03833458 -0.024535593 0.030655943 -0.036468197
0.025273908 -0.029953942 -0.062453046 0.045467127 -0.033980604 -0.027575774 -0.008142696 -0.01879184
-0.08619017 -0.06684945 -0.065039195 0.010742134 -0.05229796 -0.045356434 -0.0021858262 0.023621818
0.07328062 -0.018805461 -0.025476644 0.009524725 0.043009326 -0.019044159 -0.070424415 -0.056967665
-0.007567422 -0.01791299 0.042550106 -0.07036645 0.04257739 -0.052939553 -0.035162225 0.01787293
0.030378154 0.016720962 -0.055884253 -0.024217412 -0.06040177 -0.058178563 0.030862736 0.02229217
0.0008756034 -0.060848117 -0.010476989 -0.03900282 0.05547139 0.015070301 0.030350242 -0.04744701
-0.023303302 0.046268802 0.020633614 -0.004336685 -0.07994682 -0.07671254 0.046582483 -0.056113675

fc3.bias f4 [2]
00000000: 05b1 1abd 54b3 1d3d
-0.037766475 0.0385011
